…
tile_barrel_Lr1 (InputLayer)    [(None, 7, 11)]      0                                            
__________________________________________________________________________________________________
tile_barrel_Lr2 (InputLayer)    [(None, 7, 11)]      0                                            
__________________________________________________________________________________________________
tile_barrel_Lr3 (InputLayer)    [(None, 7, 11)]      0                                            
__________________________________________________________________________________________________
reshape_7 (Reshape)             (None, 56, 11, 1)    0           em_barrel_Lr1_fine[0][0]         
__________________________________________________________________________________________________
reshape (Reshape)               (None, 7, 11, 1)     0           em_barrel_Lr0[0][0]              
__________________________________________________________________________________________________
reshape_1 (Reshape)             (None, 7, 11, 1)     0           em_barrel_Lr1[0][0]              
__________________________________________________________________________________________________
reshape_2 (Reshape)             (None, 7, 11, 1)     0           em_barrel_Lr2[0][0]              
__________________________________________________________________________________________________
reshape_3 (Reshape)             (None, 7, 11, 1)     0           em_barrel_Lr3[0][0]              
__________________________________________________________________________________________________
reshape_4 (Reshape)             (None, 7, 11, 1)     0           tile_barrel_Lr1[0][0]            
__________________________________________________________________________________________________
reshape_5 (Reshape)             (None, 7, 11, 1)     0           tile_barrel_Lr2[0][0]            
__________________________________________________________________________________________________
reshape_6 (Reshape)             (None, 7, 11, 1)     0           tile_barrel_Lr3[0][0]            
__________________________________________________________________________________________________
conv2d_2 (Conv2D)               (None, 54, 9, 200)   2000        reshape_7[0][0]                  
__________________________________________________________________________________________________
tracks_image (InputLayer)       [(None, 5, 13)]      0                                            
__________________________________________________________________________________________________
concatenate (Concatenate)       (None, 7, 11, 7)     0           reshape[0][0]                    
                                                                 reshape_1[0][0]                  
                                                                 reshape_2[0][0]                  
                                                                 reshape_3[0][0]                  
                                                                 reshape_4[0][0]                  
                                                                 reshape_5[0][0]                  
                                                                 reshape_6[0][0]                  
__________________________________________________________________________________________________
leaky_re_lu_2 (LeakyReLU)       (None, 54, 9, 200)   0           conv2d_2[0][0]                   
__________________________________________________________________________________________________
reshape_8 (Reshape)             (None, 5, 13, 1)     0           tracks_image[0][0]               
__________________________________________________________________________________________________
conv2d (Conv2D)                 (None, 6, 9, 200)    8600        concatenate[0][0]                
__________________________________________________________________________________________________
max_pooling2d (MaxPooling2D)    (None, 27, 5, 200)   0           leaky_re_lu_2[0][0]              
__________________________________________________________________________________________________
conv2d_4 (Conv2D)               (None, 5, 13, 200)   400         reshape_8[0][0]                  
__________________________________________________________________________________________________
leaky_re_lu (LeakyReLU)         (None, 6, 9, 200)    0           conv2d[0][0]                     
__________________________________________________________________________________________________
dropout_2 (Dropout)             (None, 27, 5, 200)   0           max_pooling2d[0][0]              
__________________________________________________________________________________________________
leaky_re_lu_4 (LeakyReLU)       (None, 5, 13, 200)   0           conv2d_4[0][0]                   
__________________________________________________________________________________________________
dropout (Dropout)               (None, 6, 9, 200)    0           leaky_re_lu[0][0]                
__________________________________________________________________________________________________
conv2d_3 (Conv2D)               (None, 25, 3, 200)   360200      dropout_2[0][0]                  
__________________________________________________________________________________________________
dropout_4 (Dropout)             (None, 5, 13, 200)   0           leaky_re_lu_4[0][0]              
__________________________________________________________________________________________________
conv2d_1 (Conv2D)               (None, 5, 7, 200)    240200      dropout[0][0]                    
__________________________________________________________________________________________________
leaky_re_lu_3 (LeakyReLU)       (None, 25, 3, 200)   0           conv2d_3[0][0]                   
__________________________________________________________________________________________________
conv2d_5 (Conv2D)               (None, 5, 13, 200)   40200       dropout_4[0][0]                  
__________________________________________________________________________________________________
leaky_re_lu_1 (LeakyReLU)       (None, 5, 7, 200)    0           conv2d_1[0][0]                   
__________________________________________________________________________________________________
max_pooling2d_1 (MaxPooling2D)  (None, 13, 2, 200)   0           leaky_re_lu_3[0][0]              
__________________________________________________________________________________________________
leaky_re_lu_5 (LeakyReLU)       (None, 5, 13, 200)   0           conv2d_5[0][0]                   
__________________________________________________________________________________________________
dropout_1 (Dropout)             (None, 5, 7, 200)    0           leaky_re_lu_1[0][0]              
__________________________________________________________________________________________________
dropout_3 (Dropout)             (None, 13, 2, 200)   0           max_pooling2d_1[0][0]            
__________________________________________________________________________________________________
dropout_5 (Dropout)             (None, 5, 13, 200)   0           leaky_re_lu_5[0][0]              
__________________________________________________________________________________________________
p_Eratio (InputLayer)           [(None,)]            0                                            
__________________________________________________________________________________________________
p_Reta (InputLayer)             [(None,)]            0                                            
…
p_sct_weight_charge (InputLayer [(None,)]            0                                            
__________________________________________________________________________________________________
p_eta (InputLayer)              [(None,)]            0                                            
__________________________________________________________________________________________________
p_et_calo (InputLayer)          [(None,)]            0                                            
__________________________________________________________________________________________________
flatten (Flatten)               (None, 7000)         0           dropout_1[0][0]                  
__________________________________________________________________________________________________
flatten_1 (Flatten)             (None, 5200)         0           dropout_3[0][0]                  
__________________________________________________________________________________________________
flatten_2 (Flatten)             (None, 13000)        0           dropout_5[0][0]                  
__________________________________________________________________________________________________
flatten_3 (Flatten)             (None, 1)            0           p_Eratio[0][0]                   
__________________________________________________________________________________________________
flatten_4 (Flatten)             (None, 1)            0           p_Reta[0][0]                     
__________________________________________________________________________________________________
flatten_5 (Flatten)             (None, 1)            0           p_Rhad[0][0]                     
__________________________________________________________________________________________________
flatten_6 (Flatten)             (None, 1)            0           p_Rphi[0][0]                     
__________________________________________________________________________________________________
flatten_7 (Flatten)             (None, 1)            0           p_TRTPID[0][0]                   
__________________________________________________________________________________________________
flatten_8 (Flatten)             (None, 1)            0           p_numberOfSCTHits[0][0]          
__________________________________________________________________________________________________
flatten_9 (Flatten)             (None, 1)            0           p_ndof[0][0]                     
__________________________________________________________________________________________________
flatten_10 (Flatten)            (None, 1)            0           p_dPOverP[0][0]                  
__________________________________________________________________________________________________
flatten_11 (Flatten)            (None, 1)            0           p_deltaEta1[0][0]                
__________________________________________________________________________________________________
flatten_12 (Flatten)            (None, 1)            0           p_f1[0][0]                       
__________________________________________________________________________________________________
flatten_13 (Flatten)            (None, 1)            0           p_f3[0][0]                       
__________________________________________________________________________________________________
flatten_14 (Flatten)            (None, 1)            0           p_deltaPhiRescaled2[0][0]        
__________________________________________________________________________________________________
flatten_15 (Flatten)            (None, 1)            0           p_weta2[0][0]                    
__________________________________________________________________________________________________
flatten_16 (Flatten)            (None, 1)            0           p_d0[0][0]                       
__________________________________________________________________________________________________
flatten_17 (Flatten)            (None, 1)            0           p_d0Sig[0][0]                    
__________________________________________________________________________________________________
flatten_18 (Flatten)            (None, 1)            0           p_qd0Sig[0][0]                   
__________________________________________________________________________________________________
flatten_19 (Flatten)            (None, 1)            0           p_nTracks[0][0]                  
__________________________________________________________________________________________________
flatten_20 (Flatten)            (None, 1)            0           p_sct_weight_charge[0][0]        
__________________________________________________________________________________________________
flatten_21 (Flatten)            (None, 1)            0           p_eta[0][0]                      
__________________________________________________________________________________________________
flatten_22 (Flatten)            (None, 1)            0           p_et_calo[0][0]                  
__________________________________________________________________________________________________
concatenate_1 (Concatenate)     (None, 25220)        0           flatten[0][0]                    
                                                                 flatten_1[0][0]                  
                                                                 flatten_2[0][0]                  
                                                                 flatten_3[0][0]                  
                                                                 flatten_4[0][0]                  
…
                                                                 flatten_18[0][0]                 
                                                                 flatten_19[0][0]                 
                                                                 flatten_20[0][0]                 
                                                                 flatten_21[0][0]                 
                                                                 flatten_22[0][0]                 
__________________________________________________________________________________________________
dense (Dense)                   (None, 200)          5044200     concatenate_1[0][0]              
__________________________________________________________________________________________________
leaky_re_lu_6 (LeakyReLU)       (None, 200)          0           dense[0][0]                      
__________________________________________________________________________________________________
dropout_6 (Dropout)             (None, 200)          0           leaky_re_lu_6[0][0]              
__________________________________________________________________________________________________
dense_1 (Dense)                 (None, 200)          40200       dropout_6[0][0]                  
__________________________________________________________________________________________________
leaky_re_lu_7 (LeakyReLU)       (None, 200)          0           dense_1[0][0]                    
__________________________________________________________________________________________________
dropout_7 (Dropout)             (None, 200)          0           leaky_re_lu_7[0][0]              
__________________________________________________________________________________________________
dense_2 (Dense)                 (None, 2)            402         dropout_7[0][0]                  
==================================================================================================
Total params: 5,736,402
Trainable params: 5,736,402
Non-trainable params: 0
__________________________________________________________________________________________________

CNN ARCHITECTURES:
(56, 11): {'maps': [200, 200], 'kernels': [(3, 3), (3, 3)], 'pools': [(2, 2), (2, 2)]}
…
